…
/home/omar/Documents/isaacgym/python/isaacgym/_bindings/src/gymtorch
Using /home/omar/.cache/torch_extensions/py38_cu113 as PyTorch extensions root...
Emitting ninja build file /home/omar/.cache/torch_extensions/py38_cu113/gymtorch/build.ninja...
Building extension module gymtorch...
Allowing ninja to set a default number of workers... (overridable by setting the environment variable MAX_JOBS=N)
ninja: no work to do.
Not connected to PVD
+++ Using GPU PhysX
Physics Engine: PhysX
Physics Device: cuda:0
GPU Pipeline: enabled
Loading extension module gymtorch...
Setting seed: 1
Actor MLP: Sequential(
  (0): Linear(in_features=236, out_features=512, bias=True)
  (1): ELU(alpha=1.0)
  (2): Linear(in_features=512, out_features=256, bias=True)
  (3): ELU(alpha=1.0)
  (4): Linear(in_features=256, out_features=128, bias=True)
  (5): ELU(alpha=1.0)
  (6): Linear(in_features=128, out_features=12, bias=True)
)
Critic MLP: Sequential(
  (0): Linear(in_features=236, out_features=512, bias=True)
  (1): ELU(alpha=1.0)
  (2): Linear(in_features=512, out_features=256, bias=True)
  (3): ELU(alpha=1.0)
  (4): Linear(in_features=256, out_features=128, bias=True)
  (5): ELU(alpha=1.0)
  (6): Linear(in_features=128, out_features=1, bias=True)
)
################################################################################
                      [1m Learning iteration 0/1500 [0m                       

                       Computation: 35648 steps/s (collection: 2.517s, learning 0.240s)
               Value function loss: 0.2533
                    Surrogate loss: 0.1459
             Mean action noise std: 1.00
…
/home/omar/Documents/isaacgym/python/isaacgym/_bindings/src/gymtorch
Using /home/omar/.cache/torch_extensions/py38_cu113 as PyTorch extensions root...
Emitting ninja build file /home/omar/.cache/torch_extensions/py38_cu113/gymtorch/build.ninja...
Building extension module gymtorch...
Allowing ninja to set a default number of workers... (overridable by setting the environment variable MAX_JOBS=N)
ninja: no work to do.
Not connected to PVD
+++ Using GPU PhysX
Physics Engine: PhysX
Physics Device: cuda:0
GPU Pipeline: enabled
Loading extension module gymtorch...
Setting seed: 1
Actor MLP: Sequential(
  (0): Linear(in_features=235, out_features=512, bias=True)
  (1): ELU(alpha=1.0)
  (2): Linear(in_features=512, out_features=256, bias=True)
  (3): ELU(alpha=1.0)
  (4): Linear(in_features=256, out_features=128, bias=True)
  (5): ELU(alpha=1.0)
  (6): Linear(in_features=128, out_features=12, bias=True)
)
Critic MLP: Sequential(
  (0): Linear(in_features=235, out_features=512, bias=True)
  (1): ELU(alpha=1.0)
  (2): Linear(in_features=512, out_features=256, bias=True)
  (3): ELU(alpha=1.0)
  (4): Linear(in_features=256, out_features=128, bias=True)
  (5): ELU(alpha=1.0)
  (6): Linear(in_features=128, out_features=1, bias=True)
)
Importing module 'gym_38' (/home/omar/Documents/isaacgym/python/isaacgym/_bindings/linux-x86_64/gym_38.so)
Setting GYM_USD_PLUG_INFO_PATH to /home/omar/Documents/isaacgym/python/isaacgym/_bindings/linux-x86_64/usd/plugInfo.json
PyTorch version 1.10.0+cu113
Device count 1
/home/omar/Documents/isaacgym/python/isaacgym/_bindings/src/gymtorch
Using /home/omar/.cache/torch_extensions/py38_cu113 as PyTorch extensions root...
…
